app/chatbot/serialized_data.pth (torch_old, 4154 bytes, 6 tensors)

l1.weight f4 [10, 43]
0	0xbe9dee7c	-0.30846012
1	0xbe56b104	-0.20965964
2	0xbd8c3ccb	-0.06847533
3	0xbd84bbb7	-0.06481116
4	0xbe4aa12b	-0.19788043
5	0xbe9db2ef	-0.30800578
6	0x3d2c569c	0.042074785
7	0x3f568cd2	0.83808625
8	0xbe2ef6a5	-0.17086275
9	0xbeb7178d	-0.35760155
10	0xbea97b87	-0.33102056
11	0xbcef71ec	-0.029229127
12	0xbd2688a8	-0.04065767
13	0xbd3f5b30	-0.046717823
14	0xbe833713	-0.25627956
15	0x3f5b5f43	0.8569223
16	0xbf1d194b	-0.6136672
17	0xbe90706f	-0.2821078
18	0xbf0ece65	-0.55783683
19	0xbe9c8318	-0.30568767
20	0xbd958624	-0.07300976
21	0xbdbb1b1b	-0.09136029
22	0xbdb9c9a2	-0.090716615
23	0x3f03bc6e	0.51459396
24	0xbd5af1cc	-0.05345325
25	0xbe464c26	-0.19364986
26	0x3f60b6c8	0.877789
27	0xbe252aa7	-0.16129552
28	0x3f1fee12	0.6247264
29	0xbd13e052	-0.0361026
30	0xbcaf5c20	-0.021406233
31	0xbdb8ee28	-0.090298
32	0xbf1d18c3	-0.6136591
33	0xbcbd1c28	-0.023084715
34	0xbd20d582	-0.039266117
35	0xbea66961	-0.32502273
36	0xbd950367	-0.072760396
37	0x3ca595c1	0.02021301
38	0xbd2e6924	-0.04258074
39	0xbf1c7b98	-0.6112609
40	0xbe867b0e	-0.26265758
41	0xbe90b96a	-0.2826646
42	0x380835f4	3.2475175e-05
43	0x3ed85f43	0.4226018
44	0xbdb2d61a	-0.08732243
45	0xbd7a193e	-0.06105923
46	0xbc9cac29	-0.019125061
47	0x3e8f90b9	0.28040102
48	0x3e9dd7ea	0.30828792
49	0x3c89fff0	0.016845673
50	0xbe1dca4e	-0.15409204
51	0xbd6dd659	-0.058065746
52	0x3e2da4b3	0.16957359
53	0xbed1e97e	-0.40998453
54	0xbcc824b8	-0.024431571
55	0xbda5e37d	-0.081000306
56	0xbe1d921d	-0.15387769
57	0x3e886fc6	0.26647776
58	0x3be2be39	0.006919649
59	0x3f129b72	0.5726844
60	0x3de3e196	0.111270115
61	0x3ec774fd	0.38956442
62	0x3ea01869	0.31268623
63	0xbe8e8010	-0.2783208
64	0xbca4745c	-0.020075016
65	0xbe413918	-0.18869436
66	0x3d5f3990	0.054498255
67	0xbc9cb243	-0.01912797
68	0xbe013b8d	-0.12620373
69	0xbda5c89f	-0.08094906
70	0xbdaa317e	-0.08310221
71	0xbdd0f085	-0.102021255
72	0xbcf30c07	-0.029668821
73	0xbe0de82b	-0.13858096
74	0xbe5c9a3d	-0.21543212
75	0x3ecf68e5	0.40509716
76	0x3cb5066c	0.022097789
77	0xbdba17ea	-0.090865925
78	0x3f00b33c	0.5027349
79	0x3c5c6aa2	0.013453158
80	0xbeee38c4	-0.46527684
81	0x3e7a03bc	0.24415487
82	0x3f105911	0.56385905
83	0x3c4a2289	0.012337335
84	0xbe59ae14	-0.21257812
85	0x3e969213	0.2940832
86	0x3ea92e71	0.33043244
87	0xbeb7fd59	-0.35935476
88	0x3ea1b0d1	0.31580213
89	0xbdcef616	-0.10105531
90	0xbe2ace0c	-0.16680163
91	0xbdccc0a6	-0.09997682
92	0x3d111e44	0.035429254
93	0x3edd9af3	0.4328228
94	0x3c97fd1d	0.018553311
95	0xbe7d6c2c	-0.24748296
96	0xbd6d1213	-0.057878565
97	0xbe20c093	-0.15698461
98	0x3d89ef2e	0.06735073
99	0x3d0e601c	0.034759626
100	0xbec6491c	-0.38727653
101	0x3eec5129	0.4615567
102	0xbf0a5ccf	-0.54047865
103	0x3ef7e487	0.4841654
104	0xbf22832b	-0.63481396
105	0xbf2d5620	-0.6770954
106	0xbe5ecb36	-0.21757206
107	0x3e066a6e	0.13126537
108	0xbec62e48	-0.38707185
109	0x3ea5dba0	0.32394123
110	0xbd22070c	-0.0395575
111	0x3f30bbff	0.6903686
112	0x3ee27e8a	0.44237167
113	0xbe468a77	-0.19388758
114	0x3e656aa2	0.22403958
115	0x3e5c301b	0.21502726
116	0x3e18d100	0.14923477
117	0x3f27d686	0.6556171
118	0x3f537cd3	0.8261234
119	0x3ee84a1f	0.4536905
120	0x3e05c25c	0.13062423
121	0xbda63290	-0.08115113
122	0x3c2b7fa5	0.010467445
123	0x3d0b5559	0.03401694
124	0xbee2c595	-0.44291368
125	0xbedecbef	-0.43514964
126	0xbe42604d	-0.18982048
127	0xbf13aa98	-0.5768218
128	0x3ed686c7	0.41899702
129	0xbd76f546	-0.060292505
130	0x3ea3ff38	0.32030654
131	0x3e6bb6db	0.23018973
132	0x3d7bc482	0.0614667
133	0x3d3c76cb	0.046011727
134	0x388f4691	6.8319154e-05
135	0x3ece1a34	0.40254366
136	0xbebb222d	-0.36549512
137	0x3e7fd9a2	0.24985364
138	0xbb580432	-0.0032961485
139	0x3f40312b	0.75075024
140	0x3ea7aaaa	0.32747394
141	0x3f120625	0.57040626
142	0x3ea65501	0.32486728
143	0xbd84aca8	-0.06478244
144	0xbebbe428	-0.36697507
145	0x3db888d2	0.090104714
146	0x3c766c44	0.015040461
147	0xbe239104	-0.15973288
148	0x3f17e662	0.5933591
149	0x3e4f838e	0.20265028
150	0x3f0ffe0b	0.56247014
151	0x3ecd51ec	0.40101564
152	0xbde46dca	-0.11153753
153	0x3e31d3cb	0.17365949
154	0x3f0b84b8	0.5449939
155	0xbea2caa4	-0.31795228
156	0x3ec40062	0.38281542
157	0xbd9453a8	-0.07242519
158	0x3dc4b869	0.09605486
159	0x3eb5831a	0.35451585
160	0x3f15be59	0.5849357
161	0x3d2df5d2	0.04247076
162	0x3c8e7736	0.017390829
163	0x3ec40e4f	0.38292167
164	0xbe3b6a0d	-0.18302174
165	0x3f056804	0.5211184
166	0x3f4d0161	0.8008023
167	0xbe58c9c8	-0.21170723
168	0x3daa5edb	0.083188735
169	0x3ed2e706	0.41191882
170	0x3ed25649	0.41081455
171	0xbe5d74f1	-0.21626641
172	0x3e2dec83	0.16984753
173	0x3ebfd1c2	0.3746472
174	0xbdaac735	-0.08338777
175	0x3e2e2cf8	0.17009342
176	0x3edb90ef	0.42884013
177	0x3edec57a	0.43510038
178	0x3e05c7dc	0.13064522
179	0xbe3616c5	-0.17782123
180	0x3eb4ed87	0.3533747
181	0x3ebe2504	0.37137616
182	0x3e36796e	0.17819759
183	0x3e6eebd2	0.23332146
184	0xbc24f1ca	-0.010067413
185	0x3e20bd8a	0.15697303
186	0x3ebeaecc	0.37242734
187	0xbe4cb56b	-0.1999108
188	0x3ee88888	0.45416665
189	0xbc83b0f2	-0.016075585
190	0x3f0962ae	0.536662
191	0x3eb18994	0.34675276
192	0x3ef5d7d5	0.4801623
193	0x3d8347f0	0.06410205
194	0x3e382fb1	0.17986943
195	0xbdff317b	-0.124606095
196	0x3dc19a85	0.094533004
197	0xbef3a4c0	-0.47586632
198	0xbe2002c2	-0.15626052
199	0x3e95ff80	0.29296494
200	0xbd969cb0	-0.073541045
201	0xbe458d48	-0.19292176
202	0xbe39cddb	-0.18144934
203	0xbebaa77c	-0.36455905
204	0xbede6fb2	-0.43444592
205	0xbdea0fbe	-0.11428784
206	0xbea02a87	-0.31282446
207	0x3eb1ebbc	0.34750164
208	0x3d5300a7	0.051514294
209	0xbcf3a26a	-0.029740531
210	0x3ecb95f5	0.39762846
211	0x3f0b6799	0.5445495
212	0x3eb61bb0	0.35568
213	0x3f127379	0.5720745
214	0x3e9d1cc1	0.30686
215	0x3b2bac6f	0.0026195308
216	0xbe8cdfbe	-0.27514452
217	0x3c95ca4e	0.018284943
218	0xbddf2fe3	-0.108978055
219	0x3e3ae0e6	0.18249854
220	0x3d452681	0.048132423
221	0x3e83daf6	0.2575299
222	0x3f1ea3da	0.6196877
223	0x3ee0dbb0	0.43917608
224	0x3e2f882c	0.17141789
225	0x3d433e24	0.047666684
226	0x3ea251bd	0.31702986
227	0x3ed13bd7	0.40865967
228	0x3ef49acc	0.4777435
229	0x3e19ba84	0.15012556
230	0x3f1fdbfc	0.62445045
231	0x3ea7c30c	0.32765996
232	0xbe68ed4d	-0.22746773
233	0x3edf1d61	0.43577102
234	0x3f220182	0.6328355
235	0xbe8795fd	-0.2648162
236	0x3eb2425d	0.34816256
237	0x3e6adddb	0.22936194
238	0x3f115163	0.5676481
239	0xbd40f9d3	-0.04711325
240	0xbe9aade0	-0.3021078
241	0x3f0f024c	0.5586288
242	0x3ee4d03f	0.4469013
243	0x3ef0b61a	0.47013932
244	0xbdca51bb	-0.0987887
245	0xbe0b7e7d	-0.1362247
246	0xbe994917	-0.29938576
247	0xbf29bc59	-0.6630302
248	0xbee052d1	-0.43813184
249	0xbc866227	-0.016404225
250	0x3d98e215	0.07464997
251	0x3ef290bb	0.47376046
252	0x3f0fbed5	0.5615056
253	0x3ecdae76	0.40172166
254	0x3eb2f6da	0.34953958
255	0x3d62066e	0.055181913

l1.bias f4 [10]
0	0x3f1d1904	0.61366296
1	0x3f405040	0.7512245
2	0x3f228144	0.63478494
3	0x3f04a1ab	0.51809186
4	0x3f298172	0.6621314
5	0x3f29bbc5	0.6630214
6	0x3e9681df	0.2939596
7	0x3f2fb9e6	0.68643034
8	0x3ebb3af5	0.36568418
9	0x3ebf3dd0	0.37351847

l2.weight f4 [10, 10]
0	0xbf389560	-0.7210293
1	0x3e580c6f	0.21098493
2	0xbf583f31	-0.8447142
3	0x3eec2b85	0.46126953
4	0x3f4ad4db	0.7923104
5	0x3eed8ed8	0.46398044
6	0xbbbbb60b	-0.0057284883
7	0x3ec55c75	0.38547102
8	0x3df95b30	0.12175596
9	0x3c94fd8d	0.018187309
10	0x3f0458cf	0.5169801
11	0x3d93bda6	0.07213907
12	0xbea6334e	-0.32461017
13	0x3f1ad64f	0.6048326
14	0x3f4ea387	0.8071827
15	0x3f85bdca	1.0448544
16	0xbf246512	-0.6421672
17	0x3eadefdf	0.3397207
18	0xbeb06742	-0.3445378
19	0x3e660232	0.22461775
20	0xbf6e5a70	-0.93106747
21	0x3f2cbe9a	0.67478335
22	0xbf3c6378	-0.7358928
23	0x3f036add	0.51334935
24	0x3f338d03	0.7013704
25	0x3e7121be	0.23548028
26	0xbf273b45	-0.65324813
27	0x3f1de001	0.6166993
28	0xbee69b6b	-0.4504045
29	0x3e7f2ffc	0.24920648
30	0xbe8ee058	-0.27905536
31	0xbf05549f	-0.52082247
32	0x3d781b25	0.060572762
33	0x3e6b33aa	0.22968927
34	0x3ea7ffed	0.32812443
35	0xbf2d46ce	-0.67686164
36	0x3e2ff9e2	0.17185166
37	0xbe307fea	-0.17236295
38	0x3f6fa969	0.93617874
39	0x3f5fa35f	0.8735866
40	0xbc92c9e7	-0.01791854
41	0xbf4d2d49	-0.80147225
42	0xbe4d08a6	-0.2002283
43	0x3f74f447	0.9568524
44	0x3e78a41d	0.24281354
45	0x3e86557b	0.2623709
46	0x3f4b0a6a	0.79312766
47	0xbf48e0c0	-0.7846794
48	0x3f241e9f	0.64109224
49	0x3ece329a	0.4027298
50	0xbf9efcb7	-1.2420872
51	0x3f76d99b	0.9642579
52	0xbe90887e	-0.28229135
53	0xbe8177bb	-0.2528666
54	0x3f3214c5	0.6956294
55	0xbe74770e	-0.23873541
56	0xbe62d7b0	-0.22152591
57	0x3f42775a	0.75963366
58	0x3e93d235	0.28871313
59	0x3ef9b39a	0.48769838
60	0xbf5bc8a4	-0.8585303
61	0x3e024f64	0.12725598
62	0x3f630acb	0.88688344
63	0x3f27607b	0.6538159
64	0xbe8c444d	-0.2739586
65	0xbdb6313a	-0.08896108
66	0x3f8334b9	1.0250465
67	0x3e62293e	0.22086045
68	0x3daa0a6b	0.08302768
69	0x3ea614a0	0.3243761
70	0x3f682dfa	0.90695155
71	0x3f718c3a	0.94354594
72	0x3f73176f	0.9495763
73	0x3d4f98ca	0.05068282
74	0x3f2a462b	0.6651332
75	0x3e97f7de	0.29681295
76	0x3ed883eb	0.42288145
77	0x3f7594ff	0.95930475
78	0xbf1525bb	-0.582607
79	0xbf521e32	-0.82077324
80	0xbf11ce53	-0.5695545
81	0x3f41fb09	0.75773674
82	0xbf1b8097	-0.6074309
83	0xbe8517dd	-0.2599477
84	0x3f381c8b	0.71918553
85	0x3e00de15	0.12584718
86	0xbeb60256	-0.35548657
87	0x3e7084af	0.23488115
88	0x3f43386c	0.7625797
89	0x3f7f2473	0.9966499
90	0x3f9ba202	1.2158816
91	0x3eae721a	0.34071428
92	0x3e012813	0.12612943
93	0xbe4a954b	-0.19783513
94	0x3e3db67d	0.18526645
95	0x3f6152bc	0.8801687
96	0xbf7b788d	-0.9823082
97	0x3f46cf41	0.77659994
98	0xbe661c3b	-0.22471707
99	0x3df4cac0	0.11952734

l2.bias f4 [10]
0	0x3e9e21fb	0.308853
1	0x3eae5bca	0.34054404
2	0x3e724d84	0.23662382
3	0x3d4c0151	0.049805943
4	0x3e9e589f	0.30926988
5	0x3f0f1f14	0.55906796
6	0x3d7b23f2	0.061313577
7	0x3f37ff93	0.7187435
8	0x3e099bbe	0.13438317
9	0x3f008387	0.50200695

l3.weight f4 [6, 10]
0	0x3d6251ee	0.055253915
1	0x3e0d54eb	0.13801925
2	0xbe703e3d	-0.23461242
3	0x3ee1b630	0.4408431
4	0x3ecf8d93	0.405377
5	0x3e74280c	0.23843402
6	0xbf2678b5	-0.65027934
7	0xbf601acc	-0.8754089
8	0x3f5a99a9	0.85390717
9	0xbf440c2c	-0.7658107
10	0xbf1cdc28	-0.6127343
11	0x3f03045f	0.51178545
12	0xbf09ed01	-0.53877264
13	0xbf08b66f	-0.5340337
14	0xbf04cb6e	-0.5187291
15	0xbbd0df99	-0.006374311
16	0xbfac8cb5	-1.348044
17	0x3ecf19dd	0.4044942
18	0xbf66a27f	-0.900917
19	0x3f2771b9	0.654079
20	0x3eb6894e	0.3565163
21	0x3ea95e70	0.33079863
22	0x3f30ae47	0.69015926
23	0xbf5ba258	-0.8579459
24	0xbf3c9334	-0.73662114
25	0x3ef1991d	0.4718713
26	0xbf81523e	-1.0103223
27	0xbe074d74	-0.1321314
28	0x3f48435e	0.78227794
29	0xbda18f4d	-0.078886606
30	0xbf8d7745	-1.1052023
31	0xbf02e08e	-0.51123893
32	0xbf3853a9	-0.72002655
33	0x3e6b2833	0.22964554
34	0x3ef8e109	0.48609188
35	0xbf17faf5	-0.59367305
36	0x3f065516	0.5247358
37	0xbf124182	-0.57131207
38	0xbddda77e	-0.10822962
39	0xbf405286	-0.7512592
40	0xbeef5ad5	-0.46748987
41	0xbf8598fa	-1.043731
42	0xbebb2bd4	-0.36556876
43	0xbf4a590d	-0.7904213
44	0xbf44ac08	-0.76825
45	0x3ee8e474	0.45486796
46	0x3ec2f72b	0.380792
47	0x3f2eb488	0.6824422
48	0xbf212052	-0.6293994
49	0xbed4319a	-0.41444093
50	0x3f039363	0.5139677
51	0x3f067135	0.5251649
52	0x3e46e0c0	0.19421673
53	0xbf8dfa78	-1.1092062
54	0x3ea6d67c	0.32585514
55	0xbece1314	-0.4024893
56	0xbe1d2431	-0.15345837
57	0xbe5452ea	-0.20734754
58	0xbf2d7381	-0.6775437
59	0xbef4287e	-0.47687143

l3.bias f4 [6]
0	0x3d0c0574	0.034184888
1	0x3d06fd42	0.03295637
2	0xbed2ed80	-0.41196823
3	0xbe31983a	-0.17343226
4	0x3e48e174	0.19617254
5	0xbf0abc09	-0.5419317
